Data/Fundamental_energy_phi_x_in_(-0.03-np.round(np.max(phi_x_values), 4))_mu_S_-12.615400000000001_L=10_h=0.001_B=0.4_Delta=0.2_lambda=0.5_w_s=10_w_S=3.333_w_1=0.5_points=18.npz (npz, 4684 bytes, 12 tensors)

E f8 [18, 1, 1]
00000000: 004b 8a21 5fcb a3c0 0400 f068 61cb a3c0
00000010: 6da4 0933 63cb a3c0 8352 c77f 64cb a3c0
00000020: 60f2 1f4f 65cb a3c0 3a4e 11a1 65cb a3c0
00000030: 3b17 a075 65cb a3c0 deda d7cc 64cb a3c0
00000040: fde8 caa6 63cb a3c0 3c2b 9203 62cb a3c0
00000050: 1c81 2f2e 66cb a3c0 ee97 59a7 6dcb a3c0
00000060: 60d8 f6bc 74cb a3c0 514c ea6d 7bcb a3c0
00000070: ea79 e1b8 81cb a3c0 d84d 599c 87cb a3c0
00000080: 5e0c a416 8dcb a3c0 c402 f025 92cb a3c0
-2533.685802766471 -2533.6902537345904 -2533.6937487614837 -2533.6962873733733 -2533.697869299256 -2533.698494473266 -2533.698163035236 -2533.696875329463
-2533.6946319016847 -2533.691433494356 -2533.699571117888 -2533.7141674039804 -2533.7280041827325 -2533.7410729616317 -2533.753363653309 -2533.764864722016
-2533.7755633607003 -2533.785445690477

phi_x_values f8 [18]
00000000: b81e 85eb 51b8 9ebf b218 7fe5 4bb2 98bf
00000010: ac12 79df 45ac 92bf 4c19 e6b2 7f4c 89bf
00000020: 801a b44d e780 7abf 4013 e0ac 7946 43bf
00000030: b015 7ce2 48af 753f e416 4a7d b0e3 863f
00000040: 7811 ab44 de77 913f 7e17 b14a e47d 973f
00000050: 841d b750 ea83 9d3f c491 5e2b f8c4 a13f
00000060: c894 612e fbc7 a43f cc97 6431 feca a73f
00000070: ce9a 6734 01ce aa3f d09d 6a37 04d1 ad3f
00000080: 6ad0 369d 036a b03f ec51 b81e 85eb b13f
-0.03 -0.02411764705882353 -0.018235294117647058 -0.012352941176470587 -0.006470588235294117 -0.0005882352941176464 0.005294117647058824 0.011176470588235295
0.017058823529411765 0.022941176470588236 0.028823529411764706 0.03470588235294117 0.04058823529411765 0.046470588235294125 0.05235294117647059 0.05823529411764705
0.06411764705882353 0.07

w_S f8 []
00000000: abaa aaaa aaaa 0a40
3.3333333333333335

mu_S f8 []
00000000: b4ea 73b5 153b 29c0
-12.615400000000001

Delta_S f8 []
00000000: 9a99 9999 9999 c93f
0.2

theta f8 []
00000000: 182d 4454 fb21 f93f
1.5707963267948966

Lambda f8 []
00000000: 0000 0000 0000 e03f
0.5

h f8 []
00000000: fca9 f1d2 4d62 503f
0.001

k_x_values f8 [10]
00000000: 0000 0000 0000 0000 e0f0 9c76 2f1b e43f
00000010: e0f0 9c76 2f1b f43f 5069 eb31 c728 fe3f
00000020: e0f0 9c76 2f1b 0440 182d 4454 fb21 0940
00000030: 5069 eb31 c728 0e40 c452 c987 c997 1140
00000040: e0f0 9c76 2f1b 1440 fc8e 7065 959e 1640
0.0 0.6283185307179586 1.2566370614359172 1.8849555921538759 2.5132741228718345 3.141592653589793 3.7699111843077517 4.39822971502571
5.026548245743669 5.654866776461628

k_y_values f8 [10]
00000000: 0000 0000 0000 0000 e0f0 9c76 2f1b e43f
00000010: e0f0 9c76 2f1b f43f 5069 eb31 c728 fe3f
00000020: e0f0 9c76 2f1b 0440 182d 4454 fb21 0940
00000030: 5069 eb31 c728 0e40 c452 c987 c997 1140
00000040: e0f0 9c76 2f1b 1440 fc8e 7065 959e 1640
0.0 0.6283185307179586 1.2566370614359172 1.8849555921538759 2.5132741228718345 3.141592653589793 3.7699111843077517 4.39822971502571
5.026548245743669 5.654866776461628

w_1 f8 []
00000000: 0000 0000 0000 e03f
0.5

g f8 []
00000000: 9a99 9999 9999 c93f
0.2
