Data/Fundamental_energy_q_x_in_(0.0-0)_mu_S_-12.666666666666666_L=100_h=0.0001_B=0.1_Delta=0.2_lambda=0.5_w_s=10_w_S=3.333_w_1=0.5_points=57.npz (npz, 8266 bytes, 16 tensors)

E f8 [57, 1, 1]
-253611.32036130188 -253608.61744580732 -253605.59183458472 -253603.34093960855 -253596.69464217447 -253584.3783911913 -253577.9492050899 -253574.64759035484
-253572.44318187595 -253570.8950282897 -253569.76983003042 -253569.30310858012 -253568.96755015987 -253568.58293619292 -253568.4022682447 -253568.417217048
-253568.90339077264 -253569.38984616823 -253569.9435940321 -253570.86334303406 -253572.315129182 -253574.6578144614 -253578.00120619987 -253584.40407345234
-253596.0603545095 -253602.72044218416 -253605.1754951707 -253608.37900922413 -253611.32036130188 -253608.61744580735 -253605.59183458472 -253603.34093960858
-253596.6946421745 -253584.3783911913 -253577.9492050899 -253574.64759035484 -253572.44318187598 -253570.8950282897 -253569.76983003042 -253569.30310858012
-253568.96755015987 -253568.58293619292 -253568.4022682447 -253568.417217048 -253568.90339077264 -253569.38984616823 -253569.94359403208 -253570.86334303406
-253572.315129182 -253574.6578144614 -253578.00120619987 -253584.40407345234 -253596.0603545095 -253602.72044218416 -253605.17549517064 -253608.37900922407
-253611.32036130188
00000000: 1496 1990 5af5 0ec1 6c6d 87f0 44f5 0ec1
00000010: 50c5 13bc 2cf5 0ec1 a58b 3eba 1af5 0ec1
00000020: 6e8e a08e e5f4 0ec1 fef5 f106 83f4 0ec1
00000030: 93d6 f897 4ff4 0ec1 1ada 432e 35f4 0ec1
00000040: 7bf0 a28b 23f4 0ec1 8a97 0429 17f4 0ec1
00000050: a1a5 9c28 0ef4 0ec1 f630 c46c 0af4 0ec1
00000060: 2ff0 8abd 07f4 0ec1 6273 daa9 04f4 0ec1
00000070: da69 d837 03f4 0ec1 44e4 7556 03f4 0ec1
00000080: 00f1 243a 07f4 0ec1 f8aa 671e 0bf4 0ec1
00000090: 2507 7b8c 0ff4 0ec1 8464 20e8 16f4 0ec1
000000a0: d672 6285 22f4 0ec1 743a 3443 35f4 0ec1
000000b0: 6865 7802 50f4 0ec1 b8dc 8a3b 83f4 0ec1
000000c0: 2425 9b7b e0f4 0ec1 1d31 77c3 15f5 0ec1
000000d0: 1603 6a67 29f5 0ec1 f4fc 3508 43f5 0ec1
000000e0: 1496 1990 5af5 0ec1 6d6d 87f0 44f5 0ec1
000000f0: 50c5 13bc 2cf5 0ec1 a68b 3eba 1af5 0ec1
00000100: 6f8e a08e e5f4 0ec1 fef5 f106 83f4 0ec1
00000110: 93d6 f897 4ff4 0ec1 1ada 432e 35f4 0ec1
00000120: 7cf0 a28b 23f4 0ec1 8a97 0429 17f4 0ec1
00000130: a1a5 9c28 0ef4 0ec1 f630 c46c 0af4 0ec1
00000140: 2ff0 8abd 07f4 0ec1 6273 daa9 04f4 0ec1
00000150: da69 d837 03f4 0ec1 44e4 7556 03f4 0ec1
00000160: 00f1 243a 07f4 0ec1 f8aa 671e 0bf4 0ec1
00000170: 2407 7b8c 0ff4 0ec1 8464 20e8 16f4 0ec1
00000180: d672 6285 22f4 0ec1 743a 3443 35f4 0ec1
00000190: 6865 7802 50f4 0ec1 b8dc 8a3b 83f4 0ec1
000001a0: 2425 9b7b e0f4 0ec1 1d31 77c3 15f5 0ec1
000001b0: 1403 6a67 29f5 0ec1 f2fc 3508 43f5 0ec1
000001c0: 1496 1990 5af5 0ec1

q_x_values f8 [57]
0.0 0.1121997376282069 0.2243994752564138 0.3365992128846207 0.4487989505128276 0.5609986881410345 0.6731984257692414 0.7853981633974483
0.8975979010256552 1.009797638653862 1.121997376282069 1.2341971139102759 1.3463968515384828 1.4585965891666897 1.5707963267948966 1.6829960644231035
1.7951958020513104 1.9073955396795172 2.019595277307724 2.131795014935931 2.243994752564138 2.356194490192345 2.4683942278205517 2.5805939654487586
2.6927937030769655 2.8049934407051724 2.9171931783333793 3.029392915961586 3.141592653589793 3.253792391218 3.365992128846207 3.478191866474414
3.5903916041026207 3.7025913417308276 3.8147910793590345 3.9269908169872414 4.039190554615448 4.151390292243655 4.263590029871862 4.375789767500069
4.487989505128276 4.600189242756483 4.71238898038469 4.824588718012897 4.9367884556411035 5.04898819326931 5.161187930897517 5.273387668525724
5.385587406153931 5.497787143782138 5.609986881410345 5.722186619038552 5.834386356666759 5.9465860942949655 6.058785831923172 6.170985569551379
6.283185307179586
00000000: 0000 0000 0000 0000 40a1 bb3b 1fb9 bc3f
00000010: 40a1 bb3b 1fb9 cc3f f0b8 cc6c d78a d53f
00000020: 40a1 bb3b 1fb9 dc3f c844 5585 b3f3 e13f
00000030: f0b8 cc6c d78a e53f 182d 4454 fb21 e93f
00000040: 40a1 bb3b 1fb9 ec3f b48a 9991 2128 f03f
00000050: c844 5585 b3f3 f13f dcfe 1079 45bf f33f
00000060: f0b8 cc6c d78a f53f 0473 8860 6956 f73f
00000070: 182d 4454 fb21 f93f 2ce7 ff47 8ded fa3f
00000080: 40a1 bb3b 1fb9 fc3f 545b 772f b184 fe3f
00000090: b48a 9991 2128 0040 be67 778b ea0d 0140
000000a0: c844 5585 b3f3 0140 d221 337f 7cd9 0240
000000b0: dcfe 1079 45bf 0340 e6db ee72 0ea5 0440
000000c0: f0b8 cc6c d78a 0540 fa95 aa66 a070 0640
000000d0: 0473 8860 6956 0740 0e50 665a 323c 0840
000000e0: 182d 4454 fb21 0940 220a 224e c407 0a40
000000f0: 2ce7 ff47 8ded 0a40 36c4 dd41 56d3 0b40
00000100: 40a1 bb3b 1fb9 0c40 4a7e 9935 e89e 0d40
00000110: 545b 772f b184 0e40 5e38 5529 7a6a 0f40
00000120: b48a 9991 2128 1040 3979 880e 069b 1040
00000130: be67 778b ea0d 1140 4356 6608 cf80 1140
00000140: c844 5585 b3f3 1140 4d33 4402 9866 1240
00000150: d221 337f 7cd9 1240 5710 22fc 604c 1340
00000160: dcfe 1079 45bf 1340 61ed fff5 2932 1440
00000170: e6db ee72 0ea5 1440 6bca ddef f217 1540
00000180: f0b8 cc6c d78a 1540 75a7 bbe9 bbfd 1540
00000190: fa95 aa66 a070 1640 7f84 99e3 84e3 1640
000001a0: 0473 8860 6956 1740 8961 77dd 4dc9 1740
000001b0: 0e50 665a 323c 1840 933e 55d7 16af 1840
000001c0: 182d 4454 fb21 1940

w_S f8 []
3.3333333333333335
00000000: abaa aaaa aaaa 0a40

mu_s f8 []
-38.0
00000000: 0000 0000 0000 43c0

mu_S f8 []
-12.666666666666666
00000000: 5555 5555 5555 29c0

Delta_S f8 []
0.2
00000000: 9a99 9999 9999 c93f

theta f8 []
1.5707963267948966
00000000: 182d 4454 fb21 f93f

Lambda f8 []
0.5
00000000: 0000 0000 0000 e03f

h f8 []
0.0001
00000000: 2d43 1ceb e236 1a3f

k_x_values f8 [100]
0.0 0.06283185307179587 0.12566370614359174 0.1884955592153876 0.25132741228718347 0.3141592653589793 0.3769911184307752 0.4398229715025711
0.5026548245743669 0.5654866776461628 0.6283185307179586 0.6911503837897546 0.7539822368615504 0.8168140899333463 0.8796459430051422 0.942477796076938
1.0053096491487339 1.0681415022205298 1.1309733552923256 1.1938052083641215 1.2566370614359172 1.3194689145077132 1.3823007675795091 1.4451326206513049
1.5079644737231008 1.5707963267948968 1.6336281798666925 1.6964600329384885 1.7592918860102844 1.8221237390820801 1.884955592153876 1.9477874452256718
2.0106192982974678 2.0734511513692637 2.1362830044410597 2.199114857512855 2.261946710584651 2.324778563656447 2.387610416728243 2.450442269800039
2.5132741228718345 2.5761059759436304 2.6389378290154264 2.7017696820872223 2.7646015351590183 2.8274333882308142 2.8902652413026098 2.9530970943744057
3.0159289474462017 3.0787608005179976 3.1415926535897936 3.204424506661589 3.267256359733385 3.330088212805181 3.392920065876977 3.455751918948773
3.518583772020569 3.5814156250923643 3.6442474781641603 3.7070793312359562 3.769911184307752 3.832743037379548 3.8955748904513436 3.9584067435231396
4.0212385965949355 4.084070449666731 4.1469023027385274 4.209734155810323 4.272566008882119 4.335397861953915 4.39822971502571 4.461061568097507
4.523893421169302 4.586725274241099 4.649557127312894 4.71238898038469 4.775220833456486 4.838052686528282 4.900884539600078 4.9637163926718735
5.026548245743669 5.089380098815465 5.152211951887261 5.215043804959057 5.277875658030853 5.340707511102649 5.403539364174445 5.46637121724624
5.529203070318037 5.592034923389832 5.6548667764616285 5.717698629533424 5.7805304826052195 5.843362335677016 5.906194188748811 5.969026041820608
6.031857894892403 6.094689747964199 6.157521601035995 6.220353454107791
00000000: 0000 0000 0000 0000 1a27 1792 bf15 b03f
00000010: 1a27 1792 bf15 c03f a7ba 225b 9f20 c83f
00000020: 1a27 1792 bf15 d03f e0f0 9c76 2f1b d43f
00000030: a7ba 225b 9f20 d83f 6e84 a83f 0f26 dc3f
00000040: 1a27 1792 bf15 e03f fd0b 5a84 7718 e23f
00000050: e0f0 9c76 2f1b e43f c4d5 df68 e71d e63f
00000060: a7ba 225b 9f20 e83f 8a9f 654d 5723 ea3f
00000070: 6e84 a83f 0f26 ec3f 5169 eb31 c728 ee3f
00000080: 1a27 1792 bf15 f03f 8c99 388b 1b17 f13f
00000090: fd0b 5a84 7718 f23f 6f7e 7b7d d319 f33f
000000a0: e0f0 9c76 2f1b f43f 5263 be6f 8b1c f53f
000000b0: c4d5 df68 e71d f63f 3548 0162 431f f73f
000000c0: a7ba 225b 9f20 f83f 192d 4454 fb21 f93f
000000d0: 8a9f 654d 5723 fa3f fc11 8746 b324 fb3f
000000e0: 6e84 a83f 0f26 fc3f dff6 c938 6b27 fd3f
000000f0: 5169 eb31 c728 fe3f c2db 0c2b 232a ff3f
00000100: 1a27 1792 bf15 0040 53e0 a78e 6d96 0040
00000110: 8c99 388b 1b17 0140 c452 c987 c997 0140
00000120: fd0b 5a84 7718 0240 36c5 ea80 2599 0240
00000130: 6f7e 7b7d d319 0340 a837 0c7a 819a 0340
00000140: e0f0 9c76 2f1b 0440 19aa 2d73 dd9b 0440
00000150: 5263 be6f 8b1c 0540 8b1c 4f6c 399d 0540
00000160: c4d5 df68 e71d 0640 fd8e 7065 959e 0640
00000170: 3548 0162 431f 0740 6e01 925e f19f 0740
00000180: a7ba 225b 9f20 0840 e073 b357 4da1 0840
00000190: 192d 4454 fb21 0940 51e6 d450 a9a2 0940
000001a0: 8a9f 654d 5723 0a40 c358 f649 05a4 0a40
000001b0: fc11 8746 b324 0b40 35cb 1743 61a5 0b40
000001c0: 6e84 a83f 0f26 0c40 a63d 393c bda6 0c40
000001d0: dff6 c938 6b27 0d40 18b0 5a35 19a8 0d40
000001e0: 5169 eb31 c728 0e40 8a22 7c2e 75a9 0e40
000001f0: c2db 0c2b 232a 0f40 fb94 9d27 d1aa 0f40
00000200: 1a27 1792 bf15 1040 b683 5f90 1656 1040
00000210: 53e0 a78e 6d96 1040 ef3c f08c c4d6 1040
00000220: 8c99 388b 1b17 1140 28f6 8089 7257 1140
00000230: c452 c987 c997 1140 61af 1186 20d8 1140
00000240: fd0b 5a84 7718 1240 9a68 a282 ce58 1240
00000250: 36c5 ea80 2599 1240 d221 337f 7cd9 1240
00000260: 6f7e 7b7d d319 1340 0bdb c37b 2a5a 1340
00000270: a837 0c7a 819a 1340 4494 5478 d8da 1340
00000280: e0f0 9c76 2f1b 1440 7d4d e574 865b 1440
00000290: 19aa 2d73 dd9b 1440 b606 7671 34dc 1440
000002a0: 5263 be6f 8b1c 1540 efbf 066e e25c 1540
000002b0: 8b1c 4f6c 399d 1540 2779 976a 90dd 1540
000002c0: c4d5 df68 e71d 1640 6032 2867 3e5e 1640
000002d0: fd8e 7065 959e 1640 99eb b863 ecde 1640
000002e0: 3548 0162 431f 1740 d2a4 4960 9a5f 1740
000002f0: 6e01 925e f19f 1740 0b5e da5c 48e0 1740
00000300: a7ba 225b 9f20 1840 4317 6b59 f660 1840
00000310: e073 b357 4da1 1840 7cd0 fb55 a4e1 1840

k_y_values f8 [100]
0.0 0.06283185307179587 0.12566370614359174 0.1884955592153876 0.25132741228718347 0.3141592653589793 0.3769911184307752 0.4398229715025711
0.5026548245743669 0.5654866776461628 0.6283185307179586 0.6911503837897546 0.7539822368615504 0.8168140899333463 0.8796459430051422 0.942477796076938
1.0053096491487339 1.0681415022205298 1.1309733552923256 1.1938052083641215 1.2566370614359172 1.3194689145077132 1.3823007675795091 1.4451326206513049
1.5079644737231008 1.5707963267948968 1.6336281798666925 1.6964600329384885 1.7592918860102844 1.8221237390820801 1.884955592153876 1.9477874452256718
2.0106192982974678 2.0734511513692637 2.1362830044410597 2.199114857512855 2.261946710584651 2.324778563656447 2.387610416728243 2.450442269800039
2.5132741228718345 2.5761059759436304 2.6389378290154264 2.7017696820872223 2.7646015351590183 2.8274333882308142 2.8902652413026098 2.9530970943744057
3.0159289474462017 3.0787608005179976 3.1415926535897936 3.204424506661589 3.267256359733385 3.330088212805181 3.392920065876977 3.455751918948773
3.518583772020569 3.5814156250923643 3.6442474781641603 3.7070793312359562 3.769911184307752 3.832743037379548 3.8955748904513436 3.9584067435231396
4.0212385965949355 4.084070449666731 4.1469023027385274 4.209734155810323 4.272566008882119 4.335397861953915 4.39822971502571 4.461061568097507
4.523893421169302 4.586725274241099 4.649557127312894 4.71238898038469 4.775220833456486 4.838052686528282 4.900884539600078 4.9637163926718735
5.026548245743669 5.089380098815465 5.152211951887261 5.215043804959057 5.277875658030853 5.340707511102649 5.403539364174445 5.46637121724624
5.529203070318037 5.592034923389832 5.6548667764616285 5.717698629533424 5.7805304826052195 5.843362335677016 5.906194188748811 5.969026041820608
6.031857894892403 6.094689747964199 6.157521601035995 6.220353454107791
00000000: 0000 0000 0000 0000 1a27 1792 bf15 b03f
00000010: 1a27 1792 bf15 c03f a7ba 225b 9f20 c83f
00000020: 1a27 1792 bf15 d03f e0f0 9c76 2f1b d43f
00000030: a7ba 225b 9f20 d83f 6e84 a83f 0f26 dc3f
00000040: 1a27 1792 bf15 e03f fd0b 5a84 7718 e23f
00000050: e0f0 9c76 2f1b e43f c4d5 df68 e71d e63f
00000060: a7ba 225b 9f20 e83f 8a9f 654d 5723 ea3f
00000070: 6e84 a83f 0f26 ec3f 5169 eb31 c728 ee3f
00000080: 1a27 1792 bf15 f03f 8c99 388b 1b17 f13f
00000090: fd0b 5a84 7718 f23f 6f7e 7b7d d319 f33f
000000a0: e0f0 9c76 2f1b f43f 5263 be6f 8b1c f53f
000000b0: c4d5 df68 e71d f63f 3548 0162 431f f73f
000000c0: a7ba 225b 9f20 f83f 192d 4454 fb21 f93f
000000d0: 8a9f 654d 5723 fa3f fc11 8746 b324 fb3f
000000e0: 6e84 a83f 0f26 fc3f dff6 c938 6b27 fd3f
000000f0: 5169 eb31 c728 fe3f c2db 0c2b 232a ff3f
00000100: 1a27 1792 bf15 0040 53e0 a78e 6d96 0040
00000110: 8c99 388b 1b17 0140 c452 c987 c997 0140
00000120: fd0b 5a84 7718 0240 36c5 ea80 2599 0240
00000130: 6f7e 7b7d d319 0340 a837 0c7a 819a 0340
00000140: e0f0 9c76 2f1b 0440 19aa 2d73 dd9b 0440
00000150: 5263 be6f 8b1c 0540 8b1c 4f6c 399d 0540
00000160: c4d5 df68 e71d 0640 fd8e 7065 959e 0640
00000170: 3548 0162 431f 0740 6e01 925e f19f 0740
00000180: a7ba 225b 9f20 0840 e073 b357 4da1 0840
00000190: 192d 4454 fb21 0940 51e6 d450 a9a2 0940
000001a0: 8a9f 654d 5723 0a40 c358 f649 05a4 0a40
000001b0: fc11 8746 b324 0b40 35cb 1743 61a5 0b40
000001c0: 6e84 a83f 0f26 0c40 a63d 393c bda6 0c40
000001d0: dff6 c938 6b27 0d40 18b0 5a35 19a8 0d40
000001e0: 5169 eb31 c728 0e40 8a22 7c2e 75a9 0e40
000001f0: c2db 0c2b 232a 0f40 fb94 9d27 d1aa 0f40
00000200: 1a27 1792 bf15 1040 b683 5f90 1656 1040
00000210: 53e0 a78e 6d96 1040 ef3c f08c c4d6 1040
00000220: 8c99 388b 1b17 1140 28f6 8089 7257 1140
00000230: c452 c987 c997 1140 61af 1186 20d8 1140
00000240: fd0b 5a84 7718 1240 9a68 a282 ce58 1240
00000250: 36c5 ea80 2599 1240 d221 337f 7cd9 1240
00000260: 6f7e 7b7d d319 1340 0bdb c37b 2a5a 1340
00000270: a837 0c7a 819a 1340 4494 5478 d8da 1340
00000280: e0f0 9c76 2f1b 1440 7d4d e574 865b 1440
00000290: 19aa 2d73 dd9b 1440 b606 7671 34dc 1440
000002a0: 5263 be6f 8b1c 1540 efbf 066e e25c 1540
000002b0: 8b1c 4f6c 399d 1540 2779 976a 90dd 1540
000002c0: c4d5 df68 e71d 1640 6032 2867 3e5e 1640
000002d0: fd8e 7065 959e 1640 99eb b863 ecde 1640
000002e0: 3548 0162 431f 1740 d2a4 4960 9a5f 1740
000002f0: 6e01 925e f19f 1740 0b5e da5c 48e0 1740
00000300: a7ba 225b 9f20 1840 4317 6b59 f660 1840
00000310: e073 b357 4da1 1840 7cd0 fb55 a4e1 1840

w_1 f8 []
0.5
00000000: 0000 0000 0000 e03f

g f8 []
0.2
00000000: 9a99 9999 9999 c93f

B f8 []
0.1
00000000: 9a99 9999 9999 b93f

B_x f8 []
6.123233995736766e-18
00000000: 72c6 53eb 093d 5c3c

B_y f8 []
0.1
00000000: 9a99 9999 9999 b93f
